PC2/d3_ws_1.6/src/cocktail_order_pkg/resource/hello_rokey_8332_32.tflite (tflite, 206964 bytes, 9 tensors)

arith.constant f4 [1, 32]
00000000: 42b8 883e 2ba6 a83e 09b4 41be 8839 343e
00000010: b08a d4be 9aa9 653e 5e38 b73e a6cc 87be
00000020: 2e8f ccbe 823a 953e 0bfa a13e 3d14 493c
00000030: 4a7e b8be 0241 5e3e ae3c c5be 1eb1 c03d
00000040: 7ba5 be3e 1e3a 5d3e 4abe c5be e76f 6abd
00000050: ba94 9d3e 3a9f bcbe 3619 9e3e c529 fb3d
00000060: 4d4d 683e b367 ae3d 8faa 953b e917 29be
00000070: b2d6 0e3e 74ab b7be 850e a03e f733 c9bd
0.26703078 0.32939276 -0.18916334 0.17600071 -0.4151206 0.22427979 0.35785192 -0.26523322
-0.39952987 0.291462 0.3163608 0.012272892 -0.3603385 0.21704486 -0.38522857 0.094087824
0.37235627 0.21604201 -0.38621742 -0.057235625 0.30777532 -0.3684023 0.3087861 0.12263826
0.22685738 0.08515873 0.0045674513 -0.16513027 0.13949087 -0.35872996 0.31261078 -0.09824365

arith.constant1 f4 [32, 32]
00000000: ddfc e3bd 6d87 ff3c 627f fa3c 9149 153e
00000010: a3a9 a0bc c032 493e ad56 10be 548f 013e
00000020: 78b6 f2bd 6203 3f3d 4b90 61bc 1041 b8bd
00000030: b841 f73d d78f c53d 0c62 67bd 0558 313e
00000040: cb41 053e af4b da3d f8c4 0c3d 1e57 bebc
00000050: 424e 923d 24b5 df3d 7b82 553e d624 bc3c
00000060: b124 463c 5c66 a13d a273 d43d fcbc 483e
00000070: d5b1 5abd 7138 f2bb 4124 af3d b7d6 11be
00000080: c20c 55bc af24 093e e201 313e 75af a23d
00000090: 35e9 1fbe c182 983d 89c8 11be ad46 b03d
000000a0: f6dd bcbd 74d2 4e3e f368 763d 7abb d4bc
000000b0: 9e54 373e 6aff 30bc f88f afbd 052b a8bd
000000c0: ef69 ac3b 64ae 2f3d c553 acbc ef91 a83d
000000d0: 6469 9a3e e031 fbbb f1ae d53d 8118 b83e
000000e0: a972 d93b c621 f2bc a465 f13d c0a7 e2bd
000000f0: 079a 77bd d96c 863e 0546 93bd 2c58 fdbd
00000100: 73e0 d7bd 61a4 c5bd 177a b6bd f53a 73bd
00000110: 4639 adbd b6ae d2bd 81ff 213e e39a 01be
00000120: 2083 8cbd 2e3f c23d fd1d fbbc a83b 67bd
00000130: 1b61 0cbe e1e0 143d eaf0 84bd 6560 c7bd
00000140: 4ba6 093e c1ef 913b 38ea 1f3e a19c 2c3d
00000150: a6c7 0abe 2f23 e1bd 55fa 2b3e e21d 23bd
00000160: 943d 803c 032f b8bc 2bfc b5bd ee00 2ebd
00000170: 3b06 a9bc 7e5b 3cbd 85a5 24be 23f5 303e
00000180: f25a 573d c50d 993d 8d53 413b 1105 f13d
00000190: f36f a8bb ade4 3cbd 764e 183d d3ec 75bd
000001a0: 5ece 9bbd e963 cebc 1fcb 08be d82e 293e
000001b0: d147 ab39 b0a2 8d3d 980c 69bd 5908 d43d
000001c0: 1d51 163e 27ae 013e 1d17 fe3c 6ae2 f4bc
000001d0: 435c e53d 23df 2c3b 6840 1bbd 234b 583e
000001e0: 9975 8dbd 36ea d63d ff4d cf3c 61e5 99bd
000001f0: 945e aebd 39ec c13d 2db6 0c3d e8d6 debc
00000200: 9d29 1d3e 4588 75bc c6c7 07be 279c 1cbe
00000210: 8a6b cbbd 67a9 e5bd 49d2 143e 75a1 12be
00000220: 2898 10bd dbdf a03d 7f38 383d 9fab 1f3b
00000230: 7262 78bd df71 70be 3ba1 3fbc 3303 afbc
00000240: b4b6 d13d f2d1 12be 8a8e 17bc 8947 08be
00000250: fdba 50be d24b 013e 6652 f93d 8e7e 6ebe
00000260: 9737 ac3d 24ce 2dbe 93af 0a3d bff5 7fbd
00000270: 653d 56be 6386 9f3d 9319 46be e834 af3d
00000280: bf08 e73b 6558 b13d 17f6 c63d 4b4c 5b3d
00000290: 0179 963c 7506 aebd d172 d7bd a1fa c2bd
000002a0: d081 f73c 1116 ed3d 92e3 853d 4f75 5f3e
000002b0: 4e47 803d 1f18 16bb 0e40 e4bd 02ee df3d
000002c0: c079 a4ba 027a 84bd 728a 4ebd 12d1 09bd
000002d0: 2245 29bd c6d5 79be 83d3 f6bd 515f df3d
000002e0: d5ec 5fbe e45f 2bbd 561e c9bc ecb8 dbbd
000002f0: 1604 d43d 5297 86bd bfc1 1b3e e26e b8bc
00000300: b4cc 00be 2245 ed3d dc4e 623d a3bc 123d
00000310: bf7a 663b 86fb 3c3e 5eb4 003d 1277 efbc
00000320: 09de 94bd 8bb8 513e 31e1 0fbe d773 c2bd
00000330: 4c8f 8b3c 84dd 7c3e a3d9 bc3d 860a 8c3d
00000340: 652d 7f3d 0eae 8c3d cc2b cc3d 6398 9f3d
00000350: 7151 663e c8e7 d1bd 8b6c 84bc 3325 6f3e
00000360: 026f c4bb 3c57 7b3d 7137 553d 4b11 303e
00000370: e9f6 6d3c f697 fa3d 061f 333d f650 30bc
00000380: 536e 84bc 195f 203e e0ef c43d 0718 d63d
00000390: a1e5 17be aff7 dc3d db23 c9b9 b3d5 bc3c
000003a0: 6b2f 83bd aeb1 b53d 88a0 a63d c76b cb3d
000003b0: 02ea 2d3e 6c2c f0bd 389b 643d 5353 01bb
000003c0: 6649 22be 7001 febc d849 b23c 0a5f bb3d
000003d0: 04d4 09be a6d8 223e 7060 20bd a48e a4bb
000003e0: 4992 2b3e e9dd c5bd 8347 d8bd 38ef 80bd
000003f0: 0b39 96bd d03e 353e 6dbc 23be b390 80bd
-0.11132214 0.031192506 0.030578319 0.14578845 -0.01961214 0.19648266 -0.14095564 0.12652332
-0.118512094 0.046634085 -0.013767312 -0.08996785 0.12073082 0.09646576 -0.05648999 0.17318733
0.1301338 0.10658967 0.03436753 -0.0232349 0.07143833 0.10923222 0.20850556 0.022966783
0.012093709 0.078808516 0.10373618 0.19603342 -0.05339225 -0.0073919822 0.08551837 -0.14242063
-0.01300353 0.133929 0.17285874 0.07943622 -0.15616305 0.07446814 -0.14236654 0.0860723
-0.09222023 0.20197469 0.06015868 -0.025968302 0.17903373 -0.010803083 -0.08572382 -0.0821133
0.0052616517 0.04289092 -0.021036038 0.082309596 0.30158532 -0.0076658577 0.10433758 0.35956195
0.006635983 -0.02955712 0.117869645 -0.11067152 -0.060449626 0.2625492 -0.071910895 -0.12370333
-0.10540857 -0.096504934 -0.089100055 -0.059382398 -0.0845819 -0.1028723 0.15820123 -0.12656741
-0.068609476 0.09484707 -0.030653948 -0.056453377 -0.13708918 0.036347274 -0.06491263 -0.09735183
0.13442342 0.0044536297 0.15616691 0.04214156 -0.13552722 -0.10993039 0.16794713 -0.03982342
0.015654363 -0.022483354 -0.08885988 -0.042481355 -0.020632854 -0.04598569 -0.16078766 0.17281012
0.052576967 0.074733295 0.0029499263 0.117685445 -0.0051402985 -0.04611652 0.0371842 -0.060040306
-0.07607721 -0.025194125 -0.13358735 0.16521776 0.0003266917 0.06915796 -0.056896776 0.10353155
0.1467938 0.1266409 0.03101688 -0.029893119 0.11199238 0.0026378117 -0.03790322 0.21122412
-0.069071956 0.10493891 0.025305746 -0.07514454 -0.08514133 0.09468884 0.034353424 -0.027202085
0.15347905 -0.0149861025 -0.13259801 -0.15293942 -0.09932621 -0.112139516 0.14533342 -0.14319403
-0.035301358 0.07855197 0.044975754 0.0024363769 -0.06064076 -0.23480938 -0.011696155 -0.02136383
0.10239926 -0.143379 -0.009250293 -0.13308538 -0.2038383 0.1262658 0.121739194 -0.23290464
0.084090404 -0.16973168 0.033858847 -0.06249022 -0.20921858 0.07789304 -0.19345693 0.08555013
0.007050603 0.08659438 0.09714907 0.053539556 0.018368246 -0.08497325 -0.10519946 -0.0952046
0.030213267 0.115764745 0.06537546 0.21822093 0.062636 -0.002290256 -0.1114503 0.10934068
-0.0012548491 -0.06468584 -0.050425 -0.03364665 -0.041325696 -0.24397954 -0.120520614 0.10906852
-0.21867688 -0.041839495 -0.024550598 -0.107286304 0.10352342 -0.06571831 0.15210627 -0.02251381
-0.12578088 0.11585452 0.055250987 0.03582443 0.0035168377 0.18455324 0.03142201 -0.029231582
-0.07268912 0.20480554 -0.14050747 -0.09494751 0.017036103 0.24693877 0.092211984 0.06837945
0.06229915 0.06869136 0.09969291 0.07792737 0.22492005 -0.10249287 -0.016165039 0.23354034
-0.0059946785 0.06136249 0.052054826 0.17194097 0.0145242 0.122360155 0.043730758 -0.01076149
-0.016165888 0.15661277 0.09616065 0.104538016 -0.1483369 0.107894294 -0.00038364422 0.023051118
-0.06405529 0.0887178 0.08136088 0.09932666 0.16983798 -0.11727223 0.05581209 -0.0019733503
-0.15848312 -0.031006545 0.021763727 0.09148987 -0.13459784 0.15902957 -0.03915447 -0.005021887
0.16755022 -0.09661467 -0.10560515 -0.06295627 -0.07335099 0.17699742 -0.15989847 -0.06277599

arith.constant2 f4 [32, 1536]
00000000: 820c 293c aa52 b23b 0ead f93c 6e42 c43c
00000010: 9da7 bd3c bb7f a03c 29f7 5e3c 9908 503c
00000020: 1e1b 8d3b 25be 923c b8c2 08bd f8ca afbc
00000030: 751f d4bb 235d 46bc ed06 083b 1b2d b03b
00000040: 1a9c 1a3c 2fb5 b33c ebc4 133d 8e48 d5bb
00000050: 265e 203d e28e 853c a741 06bc 1cc6 97bb
00000060: 52f6 1c3d c080 f93c 2430 2fbd af97 c0bc
00000070: a443 dfbb 9c43 463c 0abb 28bd aca7 f63c
00000080: b1fc adbc d5d1 c93c 2eb6 a6bc 3830 ab3c
00000090: ab03 543d 81f1 d03c 89fe 95bc e9bc 3c3d
000000a0: 636f c0bb 4ea4 db3c 2503 033d a387 5cbd
000000b0: a4e4 6fbc 4204 723c 6863 28bd 9124 603b
000000c0: a485 2f3d 1773 8a3b 2cb0 36bc f164 b93c
000000d0: f3a2 a83c 75b7 ec3c bcf8 b7bc 4c82 513c
000000e0: 8652 563d 0495 c83b d648 ecbc 6526 ca3a
000000f0: 44df 433c 2f57 cb3c a505 f23b a772 9a3d
00000100: de38 b03c cf1d 26bc 55ee 1cbb 21be 8a3c
00000110: 1574 58bc 401b 833c b3f8 5abd e31c 133c
00000120: 91c8 da3b 7354 aaba 2dce e63c e2fe 72bc
00000130: 4d79 4d3c 97c8 b2bb 1320 08bd 19c4 863b
00000140: 5532 553c 1fbe 4e3c 4b47 4e3d 9484 9cbc
00000150: 9e74 d83c f0df bb3c 08fd 2cbd 7c5b 0abc
00000160: 9ce3 293d 6a6b df3b 8902 f0bb f828 073d
00000170: e8a3 c33c d542 2bbd 1af1 2e3c 7aed b83c
00000180: ad46 0dbd 48cc f83c fdfd 643c 6473 28bc
00000190: 3dd9 34bc 69ef 073d 05ad 833d c973 0fbd
000001a0: 8cf0 dc3c 255e 94bc 6d9a cabc 38af 4bbc
000001b0: d7ae a939 e828 14bb 313c 3bbd 3a38 883c
000001c0: cea0 c5b9 a47d aa3b f11e dc3c 1443 0cbb
000001d0: 3b08 8f3c b558 d73c d04a af3c e240 fb3c
000001e0: ff81 9c3a 5238 97bc f436 9bbc 6a63 063c
000001f0: b86d a93c 66d1 7d3c d3f3 0dbd 4974 743c
00000200: fde9 febb faa2 af3c 84bd dbbc 9903 3e3c
00000210: 3700 2d3c e30e cc3b dc4b 9abc e7d8 d93c
00000220: 2afd 02bc 6b44 a83d 9fd2 213d bd17 92bc
00000230: ccf2 36bc 6236 9b3c fdac 2ebd 1f01 03bd
00000240: 574a 7f3d 81a9 67bb 7145 1fbd 0d10 0c3d
00000250: 77f6 3a3d 1f1f c23c 5271 b1bb 4ce7 1f3b
00000260: fc1f 123d 903a ef3c e457 a6bc 6ed0 d3bb
00000270: 5789 1ebc 1aad e9bc aa0f a3bc 6df6 2c3d
00000280: 18db 9b3c 8f29 0cbc f3c2 cd3c 5d2d a6bb
00000290: 7302 abbb 8e56 07bc 2c39 25bc 1ffb 963c
000002a0: 44ba e4bb 734b ebbc 9ff0 ac3c 0ed7 6cbc
000002b0: 5bb2 873b bd29 d3ba 6d6e 5d3c 1f30 01bd
000002c0: aab8 583d fb0f 6a3c 901e 033d 0d57 41bb
000002d0: dc93 893c 9ff0 a73c 02d3 513c 6f2b d83b
000002e0: f77a 10bb 7edf 493d 472b 8b3a 0e2c d33c
000002f0: 2e32 183d 3e68 efbc 3441 1fbd 4ddf 643d
00000300: 3a10 12bd ecd2 c13b 3702 88bc c6c4 b4bc
00000310: 2976 173b e6fb 8d3c 5321 353c 7a64 873b
00000320: ab4a c1ba 2970 fc3c 1928 feba 652a 36bc
00000330: c735 bb3c fb3a b43b e3d1 1fbc 2d89 663b
00000340: fdba de3c 79bc f03c 2264 31bc 0442 6d3b
00000350: 21cd 6ebb 1480 b63c e77a 2a3c 5939 a2bb
00000360: 8d50 80bc c8e4 2e3c 66e3 ffbc 1036 323d
00000370: 71ef 663c b675 c03b 30b9 5dbc 43d7 c03c
00000380: 9939 03bd d990 3a3c dcbd b5bc 51a7 8b3c
00000390: 05dd 053d 0b75 3f3c ebb3 723b e2e2 d93b
000003a0: 3a36 413d a9dd d5b9 0793 9a3c 4e70 38bc
000003b0: a3c0 acbc 82c6 2fbc ba82 51bc 2ac8 6abd
000003c0: 965e d1ba 321c 82bc 0e73 26bd 445a fcbb
000003d0: 0a37 863d 56e1 203c 6b91 14bd 8117 8dbb
000003e0: 97fa dbbc 0bfb 253d 6ec9 1cbd d738 a63c
000003f0: a063 e93c 94c8 25bd 03da 14bc 352e dcbc
0.0103179235 0.005441983 0.030478027 0.023957457 0.023151213 0.019592157 0.013608732 0.012697362
0.004306211 0.017912934 -0.033388823 -0.021459088 -0.0064734765 -0.012107166 0.0020756081 0.0053764707
0.009436632 0.021936981 0.036076467 -0.0065088933 0.039152287 0.016303483 -0.008194364 -0.004631771
0.038320847 0.0304569 -0.04277052 -0.023509828 -0.0068134833 0.01210108 -0.041194 0.030109249
-0.021238657 0.024636189 -0.020350542 0.020897016 0.05176131 0.025505783 -0.018309848 0.046078596
-0.0058726533 0.026811745 0.03198542 -0.05384029 -0.0146419145 0.014771523 -0.041110426 0.0034201483
0.04285206 0.0042251456 -0.011150401 0.02263114 0.020585513 0.028896073 -0.022457473 0.012787413
0.052324794 0.0061212797 -0.028843325 0.0015422819 0.011955086 0.024821846 0.007385927 0.075413994
0.021511491 -0.010138943 -0.0023945768 0.016936364 -0.01321127 0.016004205 -0.053459834 0.008979055
0.0066767414 -0.0012995139 0.028174484 -0.014831277 0.012541127 -0.005456041 -0.033233713 0.004112732
0.013012488 0.012618571 0.05036096 -0.019106187 0.026422795 0.02293393 -0.042233497 -0.008444663
0.04147683 0.0068182247 -0.007324521 0.032998055 0.023881868 -0.041811783 0.0106776 0.022574175
-0.03449123 0.030370846 0.013976571 -0.0102814175 -0.011038122 0.033187304 0.06429485 -0.03502253
0.02697017 -0.018111298 -0.02473184 -0.012431912 0.00032364458 -0.002260739 -0.0457117 0.016628373
-0.00037694577 0.005202966 0.026870223 -0.0021402286 0.01745998 0.026287416 0.021397978 0.030670587
0.0011940597 -0.018459473 -0.018947102 0.008202413 0.0206822 0.015491819 -0.034656357 0.014920303
-0.0077793584 0.021440018 -0.026823767 0.011597537 0.010559133 0.0062273606 -0.018835 0.026592685
-0.007994929 0.08216175 0.039507505 -0.017833585 -0.011166286 0.01894683 -0.042645443 -0.03198349
0.062326755 -0.0035348835 -0.038884584 0.034194995 0.045645203 0.02369648 -0.00541512 0.0024399338
0.035675034 0.02920273 -0.020305581 -0.0064640557 -0.009676299 -0.028524924 -0.01990493 0.042227197
0.01902537 -0.00855483 0.025117373 -0.0050713257 -0.005218798 -0.008260382 -0.010084432 0.01843029
-0.0069802124 -0.0287225 0.02111083 -0.01445557 0.0041411347 -0.0016110461 0.013515097 -0.031540032
0.052910484 0.014286037 0.03201157 -0.002950135 0.016794138 0.02050048 0.012806656 0.0065969746
-0.002204595 0.049285404 0.0010617756 0.025777843 0.03715723 -0.029224511 -0.038880542 0.05587702
-0.035660006 0.0059150364 -0.016602619 -0.022066485 0.00231112 0.017332029 0.011055308 0.004131851
-0.0014746984 0.0308152 -0.0019390612 -0.011118506 0.022852791 0.005500195 -0.009754631 0.0035176978
0.027188772 0.029386746 -0.010827096 0.0036202678 -0.0036438184 0.02227787 0.010405279 -0.004950684
-0.01566341 0.010674663 -0.031236362 0.04350859 0.014095173 0.0058734072 -0.013532922 0.023540145
-0.03203735 0.011387073 -0.022185259 0.017047556 0.032681484 0.01168562 0.003703351 0.006649361
0.047170855 -0.00040791676 0.018868936 -0.011257244 -0.02108795 -0.01072848 -0.012787515 -0.057319798
-0.0015973623 -0.015882585 -0.04063707 -0.00770119 0.065534666 0.009819349 -0.036271494 -0.0043057804
-0.026852889 0.040522616 -0.038278036 0.020290775 0.028489888 -0.04047449 -0.009085181 -0.026877502

model_8/tf.__operators__.add/AddV2/y f4 [32]
00000000: 02eb a83c 9baa 053d ff39 14bc b2cb dc3b
00000010: ea03 773c d95f d13c b21b 573d b857 013c
00000020: abb7 d53c 53da 583c c094 dd3b d1ed ad3c
00000030: 5019 5c3c 47ab e5bb 4ffb a1bc 31ac 9ebc
00000040: a57f ff3c 1895 ceba 4089 1b3b b768 d2bc
00000050: b2bf 073c 6270 393c 17a0 383c 7cab e9bc
00000060: f352 0a3c 84a8 55bc e243 87ba 7969 a83b
00000070: 30cc e7bb 1aba a5bb 939f 6d3c 44fd 693d
0.020619873 0.032633405 -0.0090470305 0.0067381496 0.015076617 0.025558399 0.052516647 0.007894449
0.026088556 0.013235646 0.006762117 0.021231564 0.013433769 -0.0070089432 -0.019773154 -0.019369217
0.031188795 -0.0015760986 0.002373293 -0.025684698 0.00828545 0.011318298 0.011268637 -0.028524153
0.008442628 -0.013040666 -0.0010319913 0.0051395264 -0.0070739016 -0.0050575854 0.0145033775 0.0571263

model_8/tf.__operators__.add_1/AddV2/y f4 [32]
00000000: abcc 723d 83ac 31be fe6a 2dbc 11c4 1fbe
00000010: 413c b33d 579b d73d 784e a03c 140d 18be
00000020: f35f b33a a4da afbc b732 833d 8566 5fbd
00000030: aa9d c53d 7aec fabd 4f7e 2f3e f410 6bbd
00000040: 8b4a e43d d5c0 d33d 535d c1bd fe72 5d3d
00000050: 1cc0 afbd 016e 33be 02c5 123e 958d 2ebe
00000060: f2aa 00be aed1 8b3d 50c0 98bd 9c90 19bd
00000070: 42a5 093c 7c50 203e b56d 3e3d 8f56 f83c
0.059277218 -0.17350964 -0.010584591 -0.15602137 0.08751727 0.105276756 0.019568667 -0.14848739
0.0013685211 -0.02146656 0.064061575 -0.05454113 0.09649213 -0.122521356 0.17138027 -0.057389215
0.111470304 0.10339514 -0.09441628 0.054064743 -0.08581564 -0.17522432 0.14332965 -0.17046197
-0.1256521 0.068271026 -0.07458556 -0.037491426 0.008401217 0.15655702 0.046491344 0.030314712

model_8/tf.math.add_2/Add/y f4 [1, 32]
00000000: 7413 383c 7182 a93b f43b 04bd 8eb3 0a3d
00000010: 688f 073b adca c8bc b439 fbbb 3efa c6bc
00000020: 717d e2bb 5d84 593d 57be 163b 6d21 033d
00000030: 6863 17bd 2e30 163d 5930 43bd 7a26 f23c
00000040: 3762 3a3c 0570 6bbc ebb4 1f3d 4acb b63c
00000050: 56cf 50bd dc1a 90bb d335 4639 dcf6 843c
00000060: ca35 633c d359 67bd 473e 2fbd c78f eab9
00000070: d3df c63c 677e 043d 353c 4f3d df78 fd3b
0.011235107 0.0051730205 -0.03228374 0.033862643 0.0020684842 -0.024510706 -0.007666791 -0.024289247
-0.0069119264 0.053104747 0.0023001635 0.0320143 -0.036960036 0.03666704 -0.04765353 0.029559363
0.011375955 -0.014369969 0.038990896 0.022313733 -0.05097898 -0.004397733 0.00018902803 0.016230993
0.013867805 -0.056482147 -0.042784 -0.0004473908 0.02427665 0.03234711 0.050594527 0.007735356

model_8/tf.math.add_5/Add/y f4 [1, 32]
00000000: 7298 2a3e fd49 3e3e 00fa 8bbd 0dcf 923d
00000010: 037a 893e f43f f03d 7792 093e 7e77 a43d
00000020: 3e22 933e 474c 0b3e d8f5 433e 0484 00bd
00000030: 2f7c 903e 8b98 023e b686 8e3e 515d 46bd
00000040: 6447 1a3e 8b48 d93d 9c15 893e a413 583c
00000050: 7f96 2e3e 17be 8b3e 6cbe 343e 155b ba3d
00000060: de97 6e3d f87b 163c bb83 e3bd 161f ad3b
00000070: 11d1 803d 3b1f 963e 1b70 bf3d 7107 09be
0.16659716 0.18582912 -0.06834793 0.07168398 0.268509 0.11730948 0.13434778 0.08030604
0.28737062 0.13603316 0.1913675 -0.0313759 0.28219745 0.12753503 0.2783715 -0.048428837
0.15066296 0.106095396 0.267743 0.013188276 0.17049597 0.27293465 0.17650765 0.09099404
0.0582503 0.00918483 -0.1110911 0.0052832467 0.06289876 0.29320702 0.09347554 -0.13381745

model_8/tf.math.multiply_10/Mul/y f4 [1, 32]
00000000: 48c0 7e3f 585f 793f 1c46 743f 8385 683f
00000010: d92d 823f 612d 763f f928 743f abb4 773f
00000020: 9b3d 673f 47f0 863f a776 803f fbd0 883f
00000030: 97a3 753f d4c7 863f 36ad 7e3f 815f 853f
00000040: ea91 793f a769 7e3f 9dac 833f 8877 7d3f
00000050: 732b 793f 56f2 843f c9db 813f 1b43 963f
00000060: 4b11 8b3f 7585 603f 3798 753f d029 863f
00000070: 3fd5 863f 0075 803f 3601 893f d7dc 803f
0.9951215 0.9741111 0.9541948 0.9082872 1.0170242 0.9616299 0.9537502 0.9676005
0.9032838 1.0542077 1.003621 1.0688776 0.95952743 1.0529733 0.9948305 1.041977
0.9748827 0.9937996 1.0287052 0.99010515 0.97331923 1.0386455 1.0145198 1.1739229
1.0864652 0.8770364 0.95935386 1.048151 1.0533828 1.0035706 1.0703495 1.0067395

model_8/tf.math.multiply_22/Mul/y f4 [1, 32]
00000000: 30f5 a93f e09c a63f 7fe3 823f 9682 973f
00000010: 7fcb a33f 8632 983f 673b 9e3f 0c2f ad3f
00000020: 6b08 ad3f b34a 9a3f 3454 9c3f 1caf 793f
00000030: 3b60 ab3f 0351 9c3f dd3a a63f 7b8f 803f
00000040: 6f80 a13f 5e00 933f 1d03 a53f b483 883f
00000050: cd6c 973f 5ae7 a43f 71dc 983f 06a9 923f
00000060: 137f 8e3f cac0 893f 1a0a 6b3f bdde 963f
00000070: 3066 933f c9d4 ab3f 4931 a03f 9594 763f
1.327795 1.3016624 1.0225676 1.1836727 1.2796477 1.1890419 1.2361878 1.3529983
1.3518194 1.2054046 1.2213197 0.9753282 1.3388742 1.2212223 1.2986714 1.0043787
1.261732 1.1484487 1.2891575 1.0665193 1.1830078 1.2883103 1.1942273 1.1457832
1.113253 1.076196 0.9181229 1.1786724 1.151556 1.3424312 1.2515041 0.9632047
